MainNet(
  (s1): EnhanceNetve(
    (conv1): Sequential(
      (0): Conv2d(3, 32, kernel_size=(3, 3), stride=(1, 1), padding=(1, 1))
      (1): PReLU(num_parameters=1)
      (2): BatchNorm2d(32, eps=1e-05, momentum=0.1, affine=True, track_running_stats=True)
      (3): Conv2d(32, 32, kernel_size=(3, 3), stride=(1, 1), padding=(1, 1))
    )
    (conv2): Sequential(
      (0): PReLU(num_parameters=1)
      (1): BatchNorm2d(32, eps=1e-05, momentum=0.1, affine=True, track_running_stats=True)
      (2): Conv2d(32, 64, kernel_size=(3, 3), stride=(1, 1), padding=(1, 1))
      (3): PReLU(num_parameters=1)
      (4): BatchNorm2d(64, eps=1e-05, momentum=0.1, affine=True, track_running_stats=True)
      (5): Conv2d(64, 64, kernel_size=(3, 3), stride=(1, 1), padding=(1, 1))
    )
    (conv3): Sequential(
      (0): PReLU(num_parameters=1)
      (1): BatchNorm2d(64, eps=1e-05, momentum=0.1, affine=True, track_running_stats=True)
      (2): Conv2d(64, 128, kernel_size=(3, 3), stride=(1, 1), padding=(1, 1))
      (3): PReLU(num_parameters=1)
      (4): BatchNorm2d(128, eps=1e-05, momentum=0.1, affine=True, track_running_stats=True)
      (5): Conv2d(128, 128, kernel_size=(3, 3), stride=(1, 1), padding=(1, 1))
    )
    (conv4): Sequential(
      (0): PReLU(num_parameters=1)
      (1): BatchNorm2d(128, eps=1e-05, momentum=0.1, affine=True, track_running_stats=True)
      (2): Conv2d(128, 256, kernel_size=(3, 3), stride=(1, 1), padding=(1, 1))
      (3): PReLU(num_parameters=1)
      (4): BatchNorm2d(256, eps=1e-05, momentum=0.1, affine=True, track_running_stats=True)
      (5): Conv2d(256, 256, kernel_size=(3, 3), stride=(1, 1), padding=(1, 1))
    )
    (conv5): Sequential(
      (0): PReLU(num_parameters=1)
      (1): BatchNorm2d(256, eps=1e-05, momentum=0.1, affine=True, track_running_stats=True)
      (2): Conv2d(256, 512, kernel_size=(3, 3), stride=(1, 1), padding=(1, 1))
      (3): PReLU(num_parameters=1)
      (4): BatchNorm2d(512, eps=1e-05, momentum=0.1, affine=True, track_running_stats=True)
      (5): Conv2d(512, 512, kernel_size=(3, 3), stride=(1, 1), padding=(1, 1))
    )
    (pool): MaxPool2d(kernel_size=2, stride=2, padding=0, dilation=1, ceil_mode=False)
    (upconv1): ConvTranspose2d(64, 32, kernel_size=(2, 2), stride=(2, 2))
    (upconv2): ConvTranspose2d(128, 64, kernel_size=(2, 2), stride=(2, 2))
    (upconv3): ConvTranspose2d(256, 128, kernel_size=(2, 2), stride=(2, 2))
    (upconv4): ConvTranspose2d(512, 256, kernel_size=(2, 2), stride=(2, 2))
    (conv6): Sequential(
      (0): PReLU(num_parameters=1)
      (1): BatchNorm2d(512, eps=1e-05, momentum=0.1, affine=True, track_running_stats=True)
      (2): Conv2d(512, 256, kernel_size=(3, 3), stride=(1, 1), padding=(1, 1))
      (3): PReLU(num_parameters=1)
      (4): BatchNorm2d(256, eps=1e-05, momentum=0.1, affine=True, track_running_stats=True)
      (5): Conv2d(256, 256, kernel_size=(3, 3), stride=(1, 1), padding=(1, 1))
    )
    (conv7): Sequential(
      (0): PReLU(num_parameters=1)
      (1): BatchNorm2d(256, eps=1e-05, momentum=0.1, affine=True, track_running_stats=True)
      (2): Conv2d(256, 128, kernel_size=(3, 3), stride=(1, 1), padding=(1, 1))
      (3): PReLU(num_parameters=1)
      (4): BatchNorm2d(128, eps=1e-05, momentum=0.1, affine=True, track_running_stats=True)
      (5): Conv2d(128, 128, kernel_size=(3, 3), stride=(1, 1), padding=(1, 1))
    )
    (conv8): Sequential(
      (0): PReLU(num_parameters=1)
      (1): BatchNorm2d(128, eps=1e-05, momentum=0.1, affine=True, track_running_stats=True)
      (2): Conv2d(128, 64, kernel_size=(3, 3), stride=(1, 1), padding=(1, 1))
      (3): PReLU(num_parameters=1)
      (4): BatchNorm2d(64, eps=1e-05, momentum=0.1, affine=True, track_running_stats=True)
      (5): Conv2d(64, 64, kernel_size=(3, 3), stride=(1, 1), padding=(1, 1))
    )
    (conv9): Sequential(
      (0): PReLU(num_parameters=1)
      (1): BatchNorm2d(64, eps=1e-05, momentum=0.1, affine=True, track_running_stats=True)
      (2): Conv2d(64, 32, kernel_size=(3, 3), stride=(1, 1), padding=(1, 1))
      (3): PReLU(num_parameters=1)
      (4): BatchNorm2d(32, eps=1e-05, momentum=0.1, affine=True, track_running_stats=True)
      (5): Conv2d(32, 32, kernel_size=(3, 3), stride=(1, 1), padding=(1, 1))
    )
    (conv11): Sequential(
      (0): PReLU(num_parameters=1)
      (1): BatchNorm2d(35, eps=1e-05, momentum=0.1, affine=True, track_running_stats=True)
      (2): Conv2d(35, 6, kernel_size=(3, 3), stride=(1, 1), padding=(1, 1))
      (3): PReLU(num_parameters=1)
      (4): BatchNorm2d(6, eps=1e-05, momentum=0.1, affine=True, track_running_stats=True)
      (5): Conv2d(6, 6, kernel_size=(3, 3), stride=(1, 1), padding=(1, 1))
    )
    (last_act): PReLU(num_parameters=1)
  )
  (s2): SegNetvec(
    (conv1): Sequential(
      (0): PReLU(num_parameters=1)
      (1): BatchNorm2d(6, eps=1e-05, momentum=0.1, affine=True, track_running_stats=True)
      (2): Conv2d(6, 32, kernel_size=(3, 3), stride=(1, 1), padding=(1, 1))
      (3): PReLU(num_parameters=1)
      (4): BatchNorm2d(32, eps=1e-05, momentum=0.1, affine=True, track_running_stats=True)
      (5): Conv2d(32, 32, kernel_size=(3, 3), stride=(1, 1), padding=(1, 1))
    )
    (conv2): Sequential(
      (0): PReLU(num_parameters=1)
      (1): BatchNorm2d(32, eps=1e-05, momentum=0.1, affine=True, track_running_stats=True)
      (2): Conv2d(32, 64, kernel_size=(3, 3), stride=(1, 1), padding=(1, 1))
      (3): PReLU(num_parameters=1)
      (4): BatchNorm2d(64, eps=1e-05, momentum=0.1, affine=True, track_running_stats=True)
      (5): Conv2d(64, 64, kernel_size=(3, 3), stride=(1, 1), padding=(1, 1))
    )
    (conv3): Sequential(
      (0): PReLU(num_parameters=1)
      (1): BatchNorm2d(64, eps=1e-05, momentum=0.1, affine=True, track_running_stats=True)
      (2): Conv2d(64, 128, kernel_size=(3, 3), stride=(1, 1), padding=(1, 1))
      (3): PReLU(num_parameters=1)
      (4): BatchNorm2d(128, eps=1e-05, momentum=0.1, affine=True, track_running_stats=True)
      (5): Conv2d(128, 128, kernel_size=(3, 3), stride=(1, 1), padding=(1, 1))
    )
    (conv4): Sequential(
      (0): PReLU(num_parameters=1)
      (1): BatchNorm2d(128, eps=1e-05, momentum=0.1, affine=True, track_running_stats=True)
      (2): Conv2d(128, 256, kernel_size=(3, 3), stride=(1, 1), padding=(1, 1))
      (3): PReLU(num_parameters=1)
      (4): BatchNorm2d(256, eps=1e-05, momentum=0.1, affine=True, track_running_stats=True)
      (5): Conv2d(256, 256, kernel_size=(3, 3), stride=(1, 1), padding=(1, 1))
    )
    (conv5): Sequential(
      (0): PReLU(num_parameters=1)
      (1): BatchNorm2d(256, eps=1e-05, momentum=0.1, affine=True, track_running_stats=True)
      (2): Conv2d(256, 512, kernel_size=(3, 3), stride=(1, 1), padding=(1, 1))
      (3): PReLU(num_parameters=1)
      (4): BatchNorm2d(512, eps=1e-05, momentum=0.1, affine=True, track_running_stats=True)
      (5): Conv2d(512, 512, kernel_size=(3, 3), stride=(1, 1), padding=(1, 1))
    )
    (pool): MaxPool2d(kernel_size=2, stride=2, padding=0, dilation=1, ceil_mode=False)
    (upconv1): ConvTranspose2d(64, 32, kernel_size=(2, 2), stride=(2, 2))
    (upconv2): ConvTranspose2d(128, 64, kernel_size=(2, 2), stride=(2, 2))
    (upconv3): ConvTranspose2d(256, 128, kernel_size=(2, 2), stride=(2, 2))
    (upconv4): ConvTranspose2d(512, 256, kernel_size=(2, 2), stride=(2, 2))
    (conv6): Sequential(
      (0): PReLU(num_parameters=1)
      (1): BatchNorm2d(512, eps=1e-05, momentum=0.1, affine=True, track_running_stats=True)
      (2): Conv2d(512, 256, kernel_size=(3, 3), stride=(1, 1), padding=(1, 1))
      (3): PReLU(num_parameters=1)
      (4): BatchNorm2d(256, eps=1e-05, momentum=0.1, affine=True, track_running_stats=True)
      (5): Conv2d(256, 256, kernel_size=(3, 3), stride=(1, 1), padding=(1, 1))
    )
    (conv7): Sequential(
      (0): PReLU(num_parameters=1)
      (1): BatchNorm2d(256, eps=1e-05, momentum=0.1, affine=True, track_running_stats=True)
      (2): Conv2d(256, 128, kernel_size=(3, 3), stride=(1, 1), padding=(1, 1))
      (3): PReLU(num_parameters=1)
      (4): BatchNorm2d(128, eps=1e-05, momentum=0.1, affine=True, track_running_stats=True)
      (5): Conv2d(128, 128, kernel_size=(3, 3), stride=(1, 1), padding=(1, 1))
    )
    (conv8): Sequential(
      (0): PReLU(num_parameters=1)
      (1): BatchNorm2d(128, eps=1e-05, momentum=0.1, affine=True, track_running_stats=True)
      (2): Conv2d(128, 64, kernel_size=(3, 3), stride=(1, 1), padding=(1, 1))
      (3): PReLU(num_parameters=1)
      (4): BatchNorm2d(64, eps=1e-05, momentum=0.1, affine=True, track_running_stats=True)
      (5): Conv2d(64, 64, kernel_size=(3, 3), stride=(1, 1), padding=(1, 1))
    )
    (conv9): Sequential(
      (0): PReLU(num_parameters=1)
      (1): BatchNorm2d(64, eps=1e-05, momentum=0.1, affine=True, track_running_stats=True)
      (2): Conv2d(64, 32, kernel_size=(3, 3), stride=(1, 1), padding=(1, 1))
      (3): PReLU(num_parameters=1)
      (4): BatchNorm2d(32, eps=1e-05, momentum=0.1, affine=True, track_running_stats=True)
      (5): Conv2d(32, 32, kernel_size=(3, 3), stride=(1, 1), padding=(1, 1))
    )
    (conv11): Sequential(
      (0): PReLU(num_parameters=1)
      (1): BatchNorm2d(38, eps=1e-05, momentum=0.1, affine=True, track_running_stats=True)
      (2): Conv2d(38, 1, kernel_size=(3, 3), stride=(1, 1), padding=(1, 1))
      (3): PReLU(num_parameters=1)
      (4): BatchNorm2d(1, eps=1e-05, momentum=0.1, affine=True, track_running_stats=True)
      (5): Conv2d(1, 1, kernel_size=(3, 3), stride=(1, 1), padding=(1, 1))
    )
    (last_act): PReLU(num_parameters=1)
  )
)
[Epoch 1]	Learning rate: 1.00e-4
[1600/16000]	[BCE: 1.5817]	39.0+9.7s
[3200/16000]	[BCE: 1.5094]	36.4+6.0s
[4800/16000]	[BCE: 1.4622]	36.8+8.1s
[6400/16000]	[BCE: 1.4206]	36.7+5.3s
[8000/16000]	[BCE: 1.3835]	37.1+6.4s
[9600/16000]	[BCE: 1.3493]	37.0+6.4s
[11200/16000]	[BCE: 1.3176]	37.2+9.0s
…
